model1.pt (torch, 119791 bytes, 7 tensors)

0.weight f4 [1, 1, 4, 4]
0	0xbd9996e8	-0.07499486
1	0xbe7d87c1	-0.24758817
2	0xbe90bdca	-0.28269798
3	0x3e47903c	0.19488615
4	0x3d594c4f	0.05305129
5	0xbdf936a2	-0.121686235
6	0x3d184358	0.0371736
7	0xbe53d818	-0.20687902
8	0x3d58b747	0.052909162
9	0xbe308628	-0.17238677
10	0xbb9129fc	-0.0044300538
11	0xbce22d9c	-0.027609639
12	0x3e75a3f2	0.23988321
13	0xbd426048	-0.047455102
14	0x3db293be	0.08719586
15	0x3d3e9a20	0.046533704

2.weight f4 [1, 1, 2, 2]
0	0x3d3e696a	0.04648725
1	0x3ed90cdc	0.42392623
2	0xbef0e0be	-0.47046465
3	0xbdb0690b	-0.08613785

4.weight f4 [1, 1, 2, 2]
0	0x3e07cdda	0.1326212
1	0x3e67fb35	0.22654422
2	0xbe0e2bca	-0.13883892
3	0x3e99cd8b	0.3003963

6.weight f4 [512, 48]
0	0xbd9b5174	-0.07583895
1	0xbd8055fd	-0.06266401
2	0xbd61b486	-0.0551038
3	0x3d9c9bb4	0.076468855
4	0xbd59ea64	-0.053202048
5	0x3b5b4ff0	0.0033464395
6	0x3de956f0	0.11393535
7	0x3d1520c3	0.036408197
8	0x3b65fe42	0.0035094176
9	0x3d3b6151	0.045747105
10	0xbd6a70ed	-0.0572366
11	0xbd199cca	-0.03750304
12	0xbc658d6b	-0.014010767
13	0x3e423ee0	0.18969297
14	0xbd21357a	-0.03935764
15	0xbd5986cd	-0.05310707
16	0x3da98678	0.08277601
17	0x3e2ee1d4	0.17078334
18	0x3e3e7ac6	0.18601522
19	0x3d91a24b	0.07111033
20	0xbd8774f2	-0.066141024
21	0x3c370bff	0.011172294
22	0x3e1e2830	0.15445018
23	0x3cab0be3	0.020879691
24	0xbc4dcb81	-0.012560726
25	0x3e0ce859	0.13760509
26	0x3e4ddd4f	0.20103954
27	0xbd35d467	-0.044392016
28	0x3e492cc9	0.1964599
29	0x3d94d7be	0.07267712
30	0x3e34492c	0.17606038
31	0x3d5e2064	0.05423011
32	0x3e0d0926	0.13773021
33	0x3e35323a	0.17694941
34	0x3d07c7a3	0.033149373
35	0x3cb31314	0.021859683
36	0xbd6da389	-0.058017287
37	0x3e1a3bba	0.15061846
38	0x3d8f544a	0.06998499
39	0xbbda2df2	-0.006658309
40	0xbc4530b1	-0.012035535
41	0x3e2063d5	0.15663083
42	0x3c511e16	0.012763521
43	0x3e2f1a42	0.1709986
44	0x3d9b2f22	0.07577349
45	0x3e37ca49	0.1794826
46	0x3da43e3c	0.08019683
47	0x3d547a87	0.051874664
48	0xbd45ce1b	-0.04829226
49	0x3d5fca4d	0.05463629
50	0x3df30022	0.1186526
51	0xbdeb7259	-0.114964195
52	0x3e228109	0.15869536
53	0xbd1c5a04	-0.038171783
54	0xbc23da62	-0.010000797
55	0xbd73f249	-0.059557233
56	0x3dcb4f37	0.099272184
57	0x3e113987	0.14182101
58	0x3e180808	0.14846814
59	0x3e23006c	0.1591813
60	0xbd488019	-0.04895029
61	0x3dc086e7	0.094007306
62	0x3cd9af87	0.026572956
63	0x3ce55441	0.027994277
64	0xbd5205be	-0.051275007
65	0x3dc7571f	0.09733414
66	0xbd839b75	-0.064261355
67	0xbd5e17d1	-0.05422193
68	0x3cbe22c0	0.02320993
69	0x3cb5fda1	0.022215666
70	0x3d548356	0.051883064
71	0x3db1d095	0.08682362
72	0xbd3a279c	-0.04544793
73	0x3e0f694a	0.14005008
74	0x3dc6257c	0.09675118
75	0xbde3d962	-0.11125447
76	0xbde6878c	-0.11256322
77	0xbcb1c94d	-0.021702433
78	0x3d8bd491	0.06827653
79	0x3c151dc3	0.009101334
80	0xbcdc2465	-0.026872823
81	0xba2177e9	-0.00061595306
82	0x3de99c8e	0.114068136
83	0x3b88ce5b	0.00417499
84	0xbdce3696	-0.10069005
85	0x3df06274	0.117375284
86	0x3e0ccb18	0.13749349
87	0xbd15273e	-0.036414377
88	0x3d8084b2	0.062753096
89	0xbcee4080	-0.02908349
90	0xbb2154b4	-0.0024617137
91	0x3d9228fc	0.071367234
92	0xbd57ff0c	-0.052733466
93	0xbdbf5b0c	-0.09343538
94	0xbd888b1a	-0.066671565
95	0x3df9ea78	0.122029245
96	0x3dddb83c	0.108261555
97	0xbdba5677	-0.09098523
98	0x3d827609	0.0637017
99	0x3dd329ed	0.10310731
100	0xbe0814ed	-0.13289233
101	0x3d79d861	0.06099737
102	0xbccf70d2	-0.025322352
103	0xbdb6bdf6	-0.08922951
104	0x3e1129ad	0.14176054
105	0xbd6cdeb8	-0.05782959
106	0x3e12e49e	0.14345023
107	0xbe052778	-0.13003337
108	0x3db0c05d	0.086304404
109	0xbcbeef4e	-0.023307469
110	0x3c944bfe	0.018102642
111	0x3dcf3652	0.10117783
112	0x3d91079e	0.07081531
113	0xbdd9142c	-0.105995506
114	0xbdf5637d	-0.119818665
115	0x3e047da2	0.1293855
116	0x3de81f30	0.113340735
117	0x3bfbbd47	0.0076824757
118	0xbdf4d6dc	-0.11955044
119	0x3d11dd72	0.035611577
120	0x3d72f791	0.05931813
121	0x3e083369	0.13300861
122	0xbe0d29db	-0.13785498
123	0xbde6fe09	-0.11278922
124	0x3d18145a	0.037128784
125	0x3dc2a637	0.09504359
126	0xbddae2cb	-0.106877886
127	0xbbc28b19	-0.005936992
128	0xbdcdf3f6	-0.100562975
129	0x3bb2bb27	0.005454439
130	0x3daf3196	0.0855438
131	0x3e0c3b29	0.13694443
132	0xbe092427	-0.13392697
133	0x3d999ed1	0.07500995
134	0x3d689cb3	0.056790065
135	0xbcd32064	-0.025772281
136	0x3d1f5bce	0.03890591
137	0x3d322809	0.04349521
138	0x3dd402e0	0.10352111
139	0x3ce13fe7	0.027496291
140	0x3dd7f79c	0.105452746
141	0xbd9a0efa	-0.07522388
142	0xbe068a8c	-0.13138789
143	0xbdc2e4c9	-0.095162936
144	0x3d8ea514	0.0696508
145	0xbd3b6666	-0.04575195
146	0xbdc8e525	-0.09809331
147	0xbd93dee6	-0.07220249
148	0x3e0393a8	0.12849295
149	0x3d475c92	0.048672266
150	0xbc6abef2	-0.0143277515
151	0x3dec16f9	0.11527819
152	0x3da04e9b	0.07827493
153	0xbaf546e2	-0.0018713141
154	0xbd095472	-0.0335278
155	0xbcfa7714	-0.030574359
156	0xbd51ef5a	-0.051253654
157	0xbd28f5a3	-0.041249882
158	0xbc73681d	-0.0148563655
159	0xbd6b3d50	-0.05743152
160	0x3d8221f8	0.06354135
161	0xbc839421	-0.016061844
162	0x3cf8d2cd	0.030373955
163	0xbd25a07f	-0.040436264
164	0xbd8a12cd	-0.06741867
165	0x3d86f66b	0.06589969
166	0xbcd008d8	-0.025394842
167	0x3e0f319d	0.1398377
168	0x3c8cbfbe	0.017181274
169	0xbd51e29d	-0.051241506
170	0x3bac990c	0.005267268
171	0x3dadcab6	0.0848593
172	0xbd67cade	-0.056589954
173	0xbdf3e3d2	-0.11908688
174	0xbb7a4977	-0.003819076
175	0x3e051171	0.12994935
176	0xbc097240	-0.008389056
177	0x3d5ae56b	0.053441446
178	0xbd8c8c65	-0.06862716
179	0xbd04642d	-0.032322098
180	0xbd05958e	-0.03261333
181	0xbd4b3834	-0.049614146
182	0xbca31420	-0.019907057
183	0x3deea546	0.11652617
184	0xbd2aadde	-0.04166972
185	0xbda4d6f2	-0.0804881
186	0x3dd43768	0.103621304
187	0x3e10ef6f	0.14153837
188	0xbd87d708	-0.06632811
189	0xb9837936	-0.00025076576
190	0x3c64225f	0.01392421
191	0x3d18d194	0.037309244
192	0xbe092fd1	-0.13397147
193	0x3da4cc44	0.08046773
194	0x3e0ebf74	0.13940221
195	0x3dd6fde6	0.10497646
196	0xbe0b7153	-0.13617449
197	0x3de522dc	0.111882895
198	0x3bf08e0e	0.007341153
199	0x3d30051b	0.04297362
200	0x3d880e91	0.06643403
201	0x3e02a4ec	0.12758225
202	0xbba4989c	-0.0050230753
203	0x3d470ecb	0.048598092
204	0xbd005688	-0.031332523
205	0x3bb0febd	0.005401461
206	0x3e131830	0.14364696
207	0x3daa1c40	0.083061695
208	0xbddd1841	-0.10795642
209	0xbd5ce1b8	-0.0539262
210	0xbdd04fbc	-0.10171458
211	0xbdb7eebb	-0.08981081
212	0x3d4510c2	0.048111685
213	0xbe0ed871	-0.13949753
214	0x3dd7c160	0.1053493
215	0xbd420842	-0.047371157
216	0x3d06690c	0.032815024
217	0x3e0d286f	0.13784955
218	0xbd8ad248	-0.06778389
219	0x3cddd0ac	0.027077042
220	0xbc98afc4	-0.0186385
221	0x3e08b185	0.13348968
222	0x3db2e8d3	0.08735814
223	0xbc3963da	-0.01131531
224	0x3d84bc24	0.064811975
225	0xbdf359ac	-0.11882338
226	0xbd327f61	-0.04357851
227	0x3dd19e86	0.10235314
228	0x3cfb0c49	0.030645506
229	0xbde36eec	-0.11105141
230	0x3e11a3f0	0.14222693
231	0x3d3951f4	0.045244172
232	0x3c9efc17	0.019407315
233	0x3d94211d	0.07232878
234	0xbe11e9a3	-0.14249282
235	0x3d16a47d	0.036777962
236	0x3dba3d65	0.09093741
237	0xbde8abdd	-0.11360905
238	0xbd2f68a5	-0.042824406
239	0xbcc63c30	-0.024198622
240	0x3d21ca59	0.039499614
241	0x3d796df5	0.06089588
242	0xbb43b300	-0.002986133
243	0x3d121bad	0.035670925
244	0x3d845606	0.0646172
245	0x3bcb1361	0.0061973785
246	0xbb24fe96	-0.002517616
247	0xbd86cd6a	-0.065821484
248	0x3d641e57	0.055692997
249	0x3d80c7b3	0.062880896
250	0x3caa7980	0.020809889
251	0xbdae87ca	-0.085219935
252	0x3ddfdaf8	0.10930437
253	0xbda9a13c	-0.08282706
254	0xbc242330	-0.010018155
255	0x3de42371	0.111395724

6.bias f4 [512]
0	0xbe04ae77	-0.12957178
1	0xbdffd41c	-0.124916285
2	0xbd9b5a0d	-0.07585535
3	0xbd56808a	-0.05236868
4	0xbdf58214	-0.11987701
5	0xbd57c1b2	-0.052674957
6	0xbe5ab8e7	-0.21359597
7	0xbd3ffd28	-0.046872288
8	0xbdcd75b7	-0.10032218
9	0x3e645bf1	0.22300698
10	0xbe5f7c60	-0.21824789
11	0xbe22f354	-0.15913135
12	0xbe75ece4	-0.24016148
13	0xbddc3e82	-0.1075411
14	0xbe0a312e	-0.13495323
15	0x3d006b82	0.031352527
16	0xbdbf3d59	-0.09337873
17	0xbda88052	-0.082276
18	0x3df90eb9	0.12161011
19	0xbdf442db	-0.11926814
20	0xbdd43109	-0.10360915
21	0x3de6d3a2	0.112708345
22	0xbde37783	-0.111067794
23	0xbe001b3a	-0.12510386
24	0xbdce3c41	-0.10070086
25	0xbd99f360	-0.07517123
26	0xbdd155ec	-0.102214664
27	0xbc228ce2	-0.009921284
28	0xbd258151	-0.04040653
29	0xbe1df770	-0.15426421
30	0x3e336a14	0.17520934
31	0x3ded67b0	0.115920424
32	0xbe26383f	-0.16232394
33	0xbda2348c	-0.07920179
34	0x3d9bdd10	0.07610524
35	0xbd7dd367	-0.061969187
36	0xbd5ed300	-0.054400444
37	0xbd515177	-0.05110308
38	0xbe3d5e6d	-0.18493052
39	0x3d090378	0.033450574
40	0xbdd4b98d	-0.103869535
41	0xbe1c00a6	-0.15234622
42	0xbdcd9cfd	-0.10039709
43	0xbd0f2880	-0.034950733
44	0xbdd8f26a	-0.10593112
45	0xbe0c0d85	-0.13677032
46	0xbe0259b0	-0.12729526
47	0xbe366624	-0.17812401
48	0xbe1132bb	-0.14179508
49	0xbe0c2d71	-0.1368921
50	0xbe81c7df	-0.25347802
51	0xbe5cf6f2	-0.21578577
52	0xbc3fd694	-0.011708874
53	0xbeb75937	-0.35810253
54	0xbe3b3ea2	-0.18285611
55	0x3deaa4c1	0.114572056
56	0x3d1971f4	0.03746219
57	0x3ddfd550	0.10929358
58	0xbe101bad	-0.14073057
59	0xbe2c9fca	-0.1685783
60	0xbdb7da4b	-0.08977183
61	0xbe3bdccf	-0.1834595
62	0xbdf50e25	-0.119655885
63	0xbdb615c2	-0.08890869
64	0xbe0a7681	-0.13521768
65	0xbdb15b54	-0.086599976
66	0xbd814f5f	-0.06313967
67	0xbe0c821b	-0.13721506
68	0xbeb941d1	-0.36183026
69	0xbe068c4d	-0.13139458
70	0xbe4dd32f	-0.20100091
71	0xbdc24a6c	-0.09486851
72	0xbd03d5e0	-0.03218639
73	0xbe48f768	-0.19625628
74	0x3d0bb38b	0.034106772
75	0xbd8ef1b9	-0.06979699
76	0xbe5f646a	-0.21815649
77	0xbd2a58d6	-0.041588627
78	0x3d98a476	0.074532434
79	0xbe042341	-0.12904073
80	0xbd88c232	-0.06677665
81	0xbd828ac7	-0.06374126
82	0x3d4e60bd	0.050385226
83	0xbd9ee067	-0.07757645
84	0x3dd0674b	0.101759516
85	0xbe0cc596	-0.13747248
86	0xbbe0b07e	-0.006856977
87	0xbe0a990b	-0.13534944
88	0xbdf58c80	-0.11989689
89	0xbe1bf89d	-0.15231557
90	0xbe305264	-0.1721893
91	0xbd6e6be6	-0.05820837
92	0xbe0191dc	-0.12653297
93	0xbd7cdfbe	-0.061736815
94	0xbdfb489d	-0.12269709
95	0xbdabac7b	-0.083825074
96	0xbdab5708	-0.08366209
97	0xbe19e405	-0.15028389
98	0xbdb31e0f	-0.087459676
99	0x3dc1962c	0.09452471
100	0xbd8f21c5	-0.06988863
101	0xbdbefea1	-0.0932591
102	0xbca422b0	-0.020036072
103	0x3d89e3e3	0.06732919
104	0x3de6452b	0.112436615
105	0xbd02bd4d	-0.031918813
106	0x3de400c8	0.111329615
107	0xbda95255	-0.08267657
108	0x3d31e7aa	0.043433823
109	0xbe0d7746	-0.1381503
110	0xbd8925bc	-0.066966504
111	0xbe496a8c	-0.1966955
112	0xbcffc65b	-0.031222513
113	0xbe908609	-0.2822726
114	0xbdcaf050	-0.09909117
115	0xbe05f9d2	-0.1308358
116	0xbe08b8b5	-0.1335171
117	0x3e0c5e9c	0.13707966
118	0xbe01e5f0	-0.1268537
119	0x3dde3f90	0.10851967
120	0x3df6a03b	0.1204228
121	0x3dff9752	0.12480034
122	0x3d98d2c9	0.07462079
123	0xbd0f4158	-0.034974426
124	0xbd082016	-0.033233725
125	0xbe3d803a	-0.18505946
126	0xbd86885e	-0.06568979
127	0xbdc913b3	-0.098182105
128	0xbddef5b9	-0.108867116
129	0xbdf21f24	-0.11822346
130	0x3cec65b3	0.028857088
131	0x3c48f686	0.012265807
132	0xbe148d61	-0.14507057
133	0xbe083559	-0.133016
134	0x3e16c876	0.14724907
135	0x3d4a525e	0.049394958
136	0x3c2926d5	0.0103242
137	0x3e3bca83	0.18338971
138	0xbe0e3b80	-0.13889885
139	0xbe508017	-0.20361362
140	0xbdf1dbca	-0.118094996
141	0x3d2442c0	0.04010272
142	0xbdaac430	-0.08338201
143	0xbcbbe4a3	-0.02293617
144	0xbe46313f	-0.19354723
145	0xbe0d8fc1	-0.13824369
146	0x3c8b96fd	0.01703977
147	0xbdbec7a7	-0.093154244
148	0x3d9c512b	0.07632669
149	0xbd977dae	-0.073970184
150	0x3e6af305	0.22944267
151	0xbd4af782	-0.049552448
152	0xbdfb3305	-0.122655906
153	0x3d69a879	0.057045434
154	0x3d46686a	0.04843942
155	0xbe052f7c	-0.13006395
156	0xbdca3144	-0.09872678
157	0xbe01e142	-0.12683585
158	0xbdb74c30	-0.089500785
159	0xbe0b5954	-0.13608295
160	0x3da09faf	0.07842957
161	0xbdc4ead4	-0.096151024
162	0xbe386a63	-0.18009333
163	0xbe8e6bbb	-0.27816567
164	0xbddac10e	-0.106813535
165	0xbe8840f9	-0.2661207
166	0x3cb2367d	0.021754498
167	0xbe16d0e3	-0.14728121
168	0xbdccbf46	-0.0999742
169	0xbda6f874	-0.081528574
170	0x3e0de225	0.13855799
171	0x3e419b64	0.18906933
172	0x3e1f6942	0.15567496
173	0xbd5535ac	-0.05205314
174	0xbdd414ee	-0.103555545
175	0xbdfbf531	-0.12302626
176	0xbdf4430a	-0.11926849
177	0x3da8579a	0.08219834
178	0x3def7c18	0.11693591
179	0x3bfc333b	0.007696537
180	0xbde6d162	-0.11270405
181	0xbdc293a9	-0.0950082
182	0xbd3cc0f4	-0.046082452
183	0xbe5998af	-0.2124965
184	0xbea42a4d	-0.32063523
185	0x3e4f1eaf	0.20226549
186	0xbe1efca0	-0.15526056
187	0xbe11d7e3	-0.1424251
188	0xbdce9b01	-0.100881584
189	0xbbd5cd9a	-0.0065247538
190	0xbc70d171	-0.014698372
191	0x3e20f4d7	0.15718399
192	0xbe0b7ddd	-0.13622232
193	0xbdd7de4c	-0.10540447
194	0xbd8f5875	-0.06999294
195	0xbceab732	-0.028651807
196	0x3da1efc9	0.079070635
197	0xbdeb370d	-0.114851095
198	0x3db00391	0.0859443
199	0xbde75346	-0.1129518
200	0xbe8e867f	-0.27836987
201	0x3d257b87	0.040401008
202	0xbe346395	-0.17616113
203	0xbda5ba91	-0.08092225
204	0xbe254c9a	-0.16142502
205	0x3dd85be0	0.10564399
206	0x3df6f0e7	0.12057667
207	0xbe0518aa	-0.1299769
208	0xbe475ca0	-0.19468927
209	0x3e8cc299	0.27492216
210	0x3d9a819d	0.07544253
211	0xbd21cb12	-0.039500304
212	0xbdad38f0	-0.084581256
213	0xbcc78935	-0.024357418
214	0xbd956c3e	-0.07296036
215	0x3d6dbfa8	0.058044106
216	0xbdcec0b3	-0.10095348
217	0xbded5501	-0.11588479
218	0xbd219fe0	-0.03945911
219	0xbbaed844	-0.0053358395
220	0xbb525275	-0.0032092605
221	0x3e493962	0.19650796
222	0xbd92be55	-0.07165209
223	0xbd42e145	-0.047578115
224	0xbdb4dd9f	-0.08831333
225	0xbebbb2c6	-0.3665983
226	0xbd524c61	-0.05134237
227	0x3e0be983	0.13663296
228	0x3e2bf07e	0.16790959
229	0x3dc4bd63	0.09606435
230	0xbe3077dd	-0.17233224
231	0x3e05fef8	0.13085544
232	0xbd54dfce	-0.05197125
233	0xbdd83250	-0.10556471
234	0xbdb6fd68	-0.08935052
235	0xbe037161	-0.1283622
236	0xbd300dcd	-0.04298191
237	0xbdce0fae	-0.100615844
238	0xbd5aa836	-0.053383075
239	0xbdeef802	-0.116683975
240	0xbe2f5a92	-0.17124394
241	0x3dc63b2d	0.09679256
242	0x3d9223cc	0.07135734
243	0xbdf374c0	-0.11887503
244	0xbd675061	-0.05647314
245	0xbdb4a1d3	-0.08819928
246	0xbd0c2b91	-0.034221236
247	0xbe11c249	-0.1423427
248	0xbd85e4d1	-0.06537784
249	0xbe3b4060	-0.18286276
250	0xbddb85c4	-0.10718873
251	0xbd916c5e	-0.071007475
252	0xbc993367	-0.018701268
253	0x3dbea5b0	0.09308946
254	0xbe0ee148	-0.13953125
255	0xbe818070	-0.25293303

8.weight f4 [8, 512]
0	0xbdd36ca5	-0.10323457
1	0x3e08a7c1	0.13345243
2	0xbba29c42	-0.004962475
3	0x3d2346ff	0.03986263
4	0xbc1efbc9	-0.009703585
5	0x3d413e94	0.04717882
6	0xbe014197	-0.12622677
7	0x3e01a747	0.12661467
8	0x3d013a0a	0.03154949
9	0x3dba5f51	0.091002114
10	0x3e26d8b1	0.16293599
11	0x3d4aedda	0.04954324
12	0xbdd459f3	-0.10368719
13	0xbe25ed5e	-0.1620383
14	0xbd349870	-0.04409069
15	0x3d88aa5b	0.06673118
16	0x3d9dac5c	0.076988906
17	0x3c89016a	0.016724307
18	0x3dd425d5	0.103587784
19	0x3c49789f	0.012296825
20	0xbd00bac8	-0.03142813
21	0x3daa533f	0.08316659
22	0x3d2689c4	0.040658727
23	0x3bdb2026	0.006687182
24	0xbc427afd	-0.011870143
25	0xbd6a65b0	-0.057225883
26	0xbc085232	-0.008320378
27	0x3d8da70d	0.06916628
28	0xbcf673d8	-0.030084535
29	0xbccc3cf9	-0.024931418
30	0xbcdb155f	-0.026743589
31	0x3d617c7e	0.055050366
32	0xb95e7e05	-0.00021218516
33	0xbb12966c	-0.002236749
34	0x3dddcf94	0.10830608
35	0x3e4b3c53	0.1984723
36	0xbc9acb12	-0.01889566
37	0xbd23b042	-0.039963014
38	0xbd95416c	-0.07287869
39	0x3c701ce6	0.014655327
40	0x3dcb312c	0.09921488
41	0x3d4b60ea	0.04965297
42	0xbc00cb16	-0.007860919
43	0x3ccfb293	0.025353706
44	0xbd81691a	-0.06318875
45	0xbdde8679	-0.108654924
46	0xbcb4bc21	-0.022062363
47	0x3e725455	0.23664983
48	0xbc661d87	-0.014045126
49	0x3d3352c5	0.043780107
50	0x3d8da14f	0.06915533
51	0x3d8657b3	0.06559696
52	0xbcae5909	-0.02128269
53	0x3ef4d35e	0.4781751
54	0xbda76aed	-0.08174691
55	0x3dd05853	0.101730965
56	0x3d47b28c	0.04875426
57	0x3e27be08	0.16381085
58	0x3cd5b20a	0.026085872
59	0x3d511bd4	0.05105193
60	0x3e2b8744	0.16750818
61	0x3d987106	0.074434325
62	0x3e366e27	0.17815457
63	0xbd8fbec9	-0.07018811
64	0xbc722f5d	-0.0147818
65	0x3d4c6007	0.049896266
66	0x3c82de44	0.015975125
67	0x3d1e8f1c	0.0387107
68	0xbc5c51bc	-0.013447221
69	0x3cf72bd2	0.030172262
70	0x3d204157	0.039124813
71	0x3e2b47b6	0.16726574
72	0x3e3f99b5	0.18710978
73	0xbdcbf3e2	-0.09958626
74	0x3e6bb4d1	0.23018195
75	0x3cb08460	0.021547496
76	0x3da8ac6e	0.08236013
77	0xbd0fb51c	-0.03508483
78	0x3e747959	0.23874415
79	0x3e1ef892	0.1552451
80	0xbdc6ebcb	-0.09712943
81	0x3e4614f4	0.1934393
82	0x3c36be77	0.011153809
83	0xbbf9ef71	-0.0076274206
84	0xbd73c1e4	-0.05951108
85	0x3d927d37	0.07152789
86	0x3e1a8aa9	0.15091957
87	0xbd9291d3	-0.0715672
88	0x3c7dca3f	0.015490114
89	0x3df74991	0.120745786
90	0x3e33fc16	0.17576632
91	0xbd02070d	-0.031745005
92	0xbc28d263	-0.010304066
93	0x3deb3984	0.114855796
94	0xba426b78	-0.0007416527
95	0x3d224bb4	0.039622977
96	0xbcc17ff2	-0.02362058
97	0x3dccf8d3	0.10008397
98	0xbd2220d0	-0.039582074
99	0x3e0de8b8	0.13858306
100	0x3b5c7d81	0.0033644142
101	0x3de4d213	0.11172881
102	0x3d3019ad	0.042993236
103	0x3e1175f1	0.14205147
104	0x3dc3b470	0.095559
105	0x3b5d0408	0.0033724327
106	0x3e28c940	0.16483021
107	0x3cb967de	0.022632536
108	0x3dc58ada	0.096456245
109	0x3cd3266a	0.025775153
110	0xbc74ef2f	-0.014949604
111	0x3dfb84af	0.12281167
112	0x3c867732	0.016414259
113	0x3de28369	0.11060221
114	0xbd190577	-0.037358727
115	0x3ced0653	0.02893368
116	0xbd4f17a7	-0.050559666
117	0x3dadc8c3	0.08485558
118	0xbd93f516	-0.07224481
119	0x3d674a9f	0.05646765
120	0x3d36656c	0.044530317
121	0x3db8bc82	0.0902033
122	0x3dd11ceb	0.10210594
123	0x3a476e86	0.0007607717
124	0x3bd568c0	0.0065127313
125	0xbd4b90a8	-0.0496985
126	0x3cdba502	0.02681208
127	0x3c6991f1	0.014255987
128	0xbd1b8d69	-0.037976656
129	0xbd26c52c	-0.04071538
130	0x3de7d54b	0.11319979
131	0x3d44cca6	0.04804673
132	0x3c267707	0.010160214
133	0xbd29da47	-0.04146793
134	0x3dc54160	0.0963161
135	0x3df6a3c7	0.12042957
136	0x3d041eec	0.032256052
137	0xbbdfa5de	-0.006825193
138	0x3e02af6a	0.12762228
139	0xbda3a51e	-0.07990478
140	0xbcfb8d79	-0.030707108
141	0x3d9d84d8	0.076913536
142	0x3c2e6c06	0.010645872
143	0xbd4acb0b	-0.049510043
144	0x3e5b4afa	0.2141532
145	0x3df755ef	0.120769374
146	0xbccdaff6	-0.025108319
147	0x3cc0ae49	0.023520606
148	0x3df8c08a	0.12146099
149	0x3e56b291	0.20966555
150	0x3dd21a1e	0.10258888
151	0x3d343585	0.043996353
152	0xbdc2f3ab	-0.09519132
153	0x3dd06807	0.10176092
154	0x3dc5bc9b	0.09655114
155	0x3b77be43	0.0037802614
156	0xbcc4e016	-0.024032634
157	0x3d967c17	0.07347887
158	0x3c58df65	0.013236855
159	0xbc93431f	-0.017976342
160	0x3d3cd25c	0.04609905
161	0xbce9ded4	-0.028548636
162	0xbcd5d161	-0.026100816
163	0x3d129da5	0.035794873
164	0xbca0e087	-0.019638313
165	0xbe38c638	-0.18044364
166	0x3d607dcc	0.05480747
167	0x3d874779	0.06605429
168	0xbc84396f	-0.016140668
169	0x3c2bbb2c	0.010481637
170	0x3e0fc84b	0.1404125
171	0x3d8293a1	0.06375814
172	0x3c6e5b13	0.014548081
173	0x3d61b796	0.05510672
174	0xbc988c0a	-0.018621463
175	0xbd29cc64	-0.041454688
176	0xbdab4af4	-0.083639055
177	0xbdd76857	-0.10517948
178	0x3ddeca03	0.108783744
179	0x3dca7579	0.098856874
180	0xbc839836	-0.01606379
181	0x3e70f581	0.23531152
182	0x3db194a5	0.0867093
183	0x3e14298d	0.14468975
184	0x3e162342	0.14661887
185	0x3ce5b58a	0.028040666
186	0x3cf4ff2e	0.029906835
187	0xbcfdc94a	-0.030979771
188	0xbd20c303	-0.039248478
189	0x3de44de1	0.11147667
190	0x3d1f0819	0.038826082
191	0x3d3b52d0	0.045733273
192	0x3c801194	0.015633382
193	0xbdc0889a	-0.09401055
194	0x3db3de9c	0.08782694
195	0x3df09faa	0.117492035
196	0x3d83f9ed	0.06444154
197	0x3ca686fe	0.020328041
198	0x3e09921e	0.13434646
199	0x3dd9aa10	0.1062814
200	0x3d9c13ed	0.07620988
201	0x3c99c6d0	0.018771559
202	0x3d7b6f28	0.061385304
203	0x3ba4a41e	0.005024447
204	0x3be221ef	0.006901018
205	0x3d85cf74	0.06533709
206	0x3da4ba0b	0.080432974
207	0x3d3963f1	0.045261327
208	0xbd808570	-0.06275451
209	0x3db8df31	0.090269454
210	0x3dd98051	0.106201775
211	0x3d460721	0.048346642
212	0xbcd20735	-0.025638202
213	0xbb07d7dd	-0.002072803
214	0x3ce9f005	0.028556833
215	0x3e160069	0.14648594
216	0x3bf4842a	0.0074620442
217	0xbd32d44a	-0.043659486
218	0xbc834ebd	-0.016028756
219	0x3e298bcb	0.16557233
220	0x3d317708	0.043326408
221	0x3c896a0a	0.016774196
222	0x3df2910a	0.1184407
223	0x3c0e3455	0.008679469
224	0x3dbf93e0	0.09354377
225	0x3e422efb	0.18963234
226	0x3d2c863a	0.042120196
227	0x3e4424f0	0.19154716
228	0x3e2beb8a	0.1678907
229	0x3d7b8e6c	0.06141512
230	0x3d9c0d42	0.07619716
231	0x3e09f548	0.13472474
232	0x3d8f5722	0.06999041
233	0x3dd64cec	0.104638904
234	0xbca25674	-0.019816615
235	0x3df1e998	0.118121326
236	0xbc8659ac	-0.01640018
237	0x3cf21bda	0.029554296
238	0x3da8213d	0.08209465
239	0x3e2c4eed	0.16826983
240	0x3dd45acd	0.103688814
241	0x3c22c891	0.009935514
242	0x3d939930	0.072069526
243	0x3c1cc717	0.009568951
244	0x3c96dc40	0.01841557
245	0x3d593cdf	0.053036567
246	0x3d473287	0.04863217
247	0x3e13e621	0.14443256
248	0xbc6b411a	-0.014358783
249	0x3e0c64ca	0.13710323
250	0xbdc8960d	-0.09794245
251	0x3cf2f26e	0.029656615
252	0xbc50b875	-0.0127392905
253	0x3ddcad9d	0.107753016
254	0x3d24a46d	0.04019587
255	0xbe7e59a8	-0.24838889

8.bias f4 [8]
0	0xbd014f83	-0.03156997
1	0x3bf47b92	0.00746102
2	0xbe4ca5e6	-0.1998516
3	0x3e3fd31a	0.18732873
4	0xbeb80485	-0.35940948
5	0x3e69ccf0	0.22832084
6	0xbe7e0339	-0.24805917
7	0x3e782a8b	0.24234979
