conv_edge_on_goal/model.pt (torch, 119919 bytes, 7 tensors)

0.weight f4 [1, 1, 4, 4]
00000000: 108b babc d118 973d 5d0a b13d f0b2 11bd
00000010: 6be4 0f3e 6410 46be 3f44 663e af45 a43e
00000020: b4d7 483e 9dab 833e e25e 8d3d 6bea 893e
00000030: 107e 833d ba4d 433e 30d7 b13d 9826 f5bd
-0.022771388 0.0737778 0.08644555 -0.03557104 0.14051978 -0.1934219 0.22486971 0.32084414
0.19613534 0.25716868 0.06902863 0.2693666 0.06420529 0.19072619 0.08683622 -0.11970252

2.weight f4 [1, 1, 2, 2]
00000000: e897 083e ac82 18bf c9ad 33bf f1db 513e
0.13339198 -0.5957439 -0.7018705 0.20494057

4.weight f4 [1, 1, 2, 2]
00000000: f5d6 dcbd 8e12 9bbe e57c 433e ca1b 38bd
-0.10783187 -0.30287594 0.19090612 -0.044948377

6.weight f4 [512, 48]
00000000: e396 6a3e 9d00 cabd eb62 973c e2e9 bb3d
00000010: 524c ba3d d316 8a3d 4a83 873d 542e 433e
00000020: 3d93 273e a517 5d3d 15c5 183e 16c9 6bbc
00000030: 557f 6fbc 3669 b3bd 59c4 cebb d8c5 debb
00000040: abbb 5fbd 845c 213d 69c6 3c3e 183c 5c3d
00000050: d671 153e 6860 c53d d652 343e 3abb 323e
00000060: 524b 493e aeb1 70bd a853 d33d 21c4 393e
00000070: 2613 613e dd43 093e 83e7 0c3d 541d 8f3d
00000080: be39 493e 3983 77bd d1c5 08bd 7b3f 97bd
00000090: 2fba bebd 663c 773d 656d 1abd 0e11 b5bd
000000a0: b70d a93d 3fae a43b f14d 2bbe fdde bb3d
000000b0: 8d09 493d e426 f63d 80d2 cd3d eacf d83d
000000c0: 1894 ff3d bf45 8b3d 6c76 263c 8f57 013e
000000d0: af4e 9839 d34d 043e 8960 cdbc 1ef7 3a3e
000000e0: 998e 873d e3ed ac3d ade8 483e 182b 163e
000000f0: c858 5cbd 2e40 c03d 8e67 773d f2e4 433e
00000100: c6e0 e63d f7c9 05bd 94d9 d03c 8cb5 0b3e
00000110: 8257 133e b691 c13c 88a9 a83d 0dc2 4a3e
00000120: dca7 39bc 8553 013e a65c a43c 4020 753e
00000130: 5cc7 483e 93da ac3d ffdb 3abd b7c5 ec3d
00000140: 1260 373e 3fc6 1dbc 19c0 3e3e 7507 da3d
00000150: 1aaa 93bc 205f cabc 0718 b3bc 1974 a73c
00000160: cd1d 39bc 3587 983d f83d 00be 082e b43d
00000170: 9574 e3bc 9fcc 45bd d178 213d 4691 253d
00000180: 99e7 d4bc eb79 54bd 3597 79bc e2ed 43bc
00000190: 9c8d c7bc 35cd 85bd 4b3e 5cbb a3f0 b13d
000001a0: d5c2 2b3d 1bb3 8c3d 6420 c43d b427 73bd
000001b0: 9297 b0bd f52a a2bd 22be 12be 6334 8ebd
000001c0: 4267 823b 1da4 e53c 0972 09b9 6698 ea3d
000001d0: 3623 29bd 255f 563d 494f 6fbc 1f5e 413d
000001e0: 9f12 9abc 7a11 e7bd df50 07bc 4469 fb3d
000001f0: 6f08 6c3d 2600 b8bd d257 8a3a b301 1c3c
00000200: d37e b73d cc21 dd3d d5fc de3d 3526 593d
00000210: 1f72 68bd 4cfa 963d 7125 f53d fa44 1bbc
00000220: 0953 033d dddb ff3d a8d3 b83d 79f4 7f3d
00000230: f1e1 2fbd 7810 753c a82f b83d a305 08bd
00000240: e1d0 8e3d f927 0bbe 0c01 bdbd 1fe7 b2bd
00000250: b814 59bd d883 51bd 3dfc ff3d 6a04 89bc
00000260: 2c76 b4bd c34e 96ba 5a6e babd fc42 b0bc
00000270: e289 ba3d 2ec0 5cbd 8d56 67bb 5e9e 59bc
00000280: fd65 323e 0845 713d 27c8 393e dea4 cdbd
00000290: 4a11 01be 4718 5cbd 5ad8 f43d c80b bebd
000002a0: 33a2 cabd 0efe c73d 637e d13d 292c edbd
000002b0: dd4e 843c 027c 3e3d 02b8 3ebd 30f4 74bc
000002c0: d48b d4bd 7b0e 203d 7430 b6bd c8d8 b2bd
000002d0: 7dd7 c53d 7f5a bc3a 76fa 8a3b 25b3 d4bb
000002e0: bb26 8b3d 04b2 5bbd 4a93 413e b3db a83d
000002f0: dcb4 da3c 7494 2b3d 0e32 c8bd edd6 6c3c
00000300: 44c3 093e 2e9b 95bc b690 42bd b21b 7b3c
00000310: b77f 053e 6654 e1bd abbe 173d cfcf 313d
00000320: c58d d03d ec76 043e 2f14 083e 591a eb3c
00000330: 7b47 ef3d 1ba5 973c aa03 833d f212 183d
00000340: 5482 23bd b395 9c3d 6f08 0a3e 7eec 09be
00000350: 2cde 003d de36 133e 300b 033d 541a 39bd
00000360: 9a9d 113e 1cf2 4e3d 651c ecbd 30a2 9f3c
00000370: d962 903d 889e 5cbd 7903 13be 767d 01be
00000380: 5eb3 f0bd 9fda 52bd 283a 1f3d f9d7 8bbd
00000390: 6a57 e13d f1a0 d2bc f3f7 073e abce db3d
000003a0: 1ec6 d33d c48a 053e d239 aa3d c999 11be
000003b0: 605c 4bbd a90d f63d 0774 8abd 84c0 6b3d
000003c0: e07c 013e 9e28 013d 3c23 9b3d 6d25 6bbc
000003d0: 8009 58bc 56d5 863d 130b 103e bfda e63d
000003e0: 54b4 b6bc 6e50 193e 8238 c1bb de7c 083e
000003f0: d8ae 4cbd 144f 0bbe 6b41 f73c 91bd fcbd
0.22909121 -0.09863398 0.018479785 0.09175469 0.09096588 0.067426346 0.06616838 0.19060642
0.1636476 0.053977627 0.14918931 -0.014391204 -0.014617761 -0.08760302 -0.0063100276 -0.006798487
-0.054622333 0.03939487 0.18435062 0.053768247 0.14594206 0.09637529 0.17609724 0.17454234
0.19657639 -0.0587632 0.103186905 0.18141223 0.21979961 0.13404794 0.034400474 0.06988016
0.19650933 -0.060427878 -0.033391777 -0.07385155 -0.093128555 0.060360335 -0.037701983 -0.088411435
0.08254569 0.0050256546 -0.16728951 0.09173391 0.049081374 0.120191365 0.10049915 0.105865315
0.124794185 0.068004124 0.01016007 0.12631057 0.00029050323 0.12920313 -0.025070446 0.1825833
0.06618995 0.08443811 0.19620009 0.14664876 -0.053795606 0.09387241 0.06040149 0.19130304
0.11273341 -0.03266331 0.025494374 0.13643473 0.1438885 0.02362905 0.082354605 0.19800587
-0.011331525 0.12629516 0.02006371 0.23938084 0.196073 0.08440127 -0.04561996 0.115611486
0.17907742 -0.009629785 0.18627967 0.106459536 -0.018025447 -0.024703562 -0.021862043 0.020441102
-0.011298609 0.07447664 -0.12523639 0.08797842 -0.027765552 -0.048290845 0.03942186 0.040421747
-0.02598934 -0.051874083 -0.0152338045 -0.011958571 -0.024359517 -0.06533281 -0.0033606465 0.08688476
0.041933853 0.06870099 0.095764905 -0.059364036 -0.0862266 -0.0791835 -0.14330342 -0.06943586
0.0039795944 0.028032357 -0.0001310782 0.11454849 -0.041293345 0.05233683 -0.014606305 0.0472089
-0.018807707 -0.1128263 -0.008259027 0.12275937 0.05762523 -0.08984403 0.0010554737 0.0095218895
0.08959737 0.10797462 0.10888068 0.053014953 -0.05674946 0.07371959 0.11970032 -0.0094768945
0.03206161 0.124931075 0.09024745 0.062489007 -0.042940084 0.01495754 0.08993465 -0.0332085
0.06973434 -0.13589467 -0.09228715 -0.08735489 -0.052998275 -0.051151127 0.124992825 -0.016725738
-0.08811602 -0.0011467565 -0.09103079 -0.021516316 0.0910833 -0.053894214 -0.003529939 -0.013282387
0.17421718 0.058903724 0.18142758 -0.100412115 -0.12604252 -0.05373409 0.11955328 -0.09279591
-0.09894218 0.09765254 0.102291845 -0.115806885 0.016150886 0.04650498 -0.046562202 -0.014950797
-0.103782326 0.03907631 -0.088959605 -0.08732754 0.09660242 0.0014370232 0.004241283 -0.0064910823
0.067944966 -0.053636566 0.18903843 0.08245029 0.026697569 0.041889623 -0.09775172 0.014455539
0.13453394 -0.018262472 -0.04750129 0.015326427 0.13037 -0.11002426 0.03704707 0.043411072
0.101832904 0.1293599 0.1328895 0.028699087 0.11683556 0.018511346 0.06397183 0.037127443
-0.039919212 0.0764574 0.1347978 -0.13469121 0.03146188 0.14376399 0.03199309 -0.045191124
0.14220276 0.050523862 -0.11528853 0.019486517 0.07050104 -0.053862125 -0.14356793 -0.12645516
-0.117529616 -0.051478025 0.03887382 -0.06828303 0.11003001 -0.025711508 0.13278179 0.10732778
0.10340522 0.13041216 0.083118096 -0.1421882 -0.049648643 0.12014324 -0.06760412 0.057556644
0.12645292 0.031532876 0.0757508 -0.014352185 -0.013185859 0.06583659 0.14066724 0.11272191
-0.022302784 0.14972088 -0.005896629 0.13328883 -0.04997143 -0.13604385 0.03018256 -0.123408444

6.bias f4 [512]
00000000: 0661 19be eefa 60be 6ff4 c7bd 5fea 09bd
00000010: 9576 bdbd 5335 84bd cac7 81be cb80 2ebe
00000020: a2bc 0fbe 1e12 c2bd e26e d2bd 0adf c0be
00000030: f689 9cbd 0d11 a1bd d9cd 12be 6791 7bbd
00000040: dccf c3bd c288 42be 31c8 04be 0291 8dbe
00000050: d678 f9bd fdef 90be 9829 99bd 0b25 b5be
00000060: e968 56bd 4246 06be ba37 efbd 435a 33bd
00000070: 5520 c0bd 3547 6bbd 3222 39bd 39da bdbd
00000080: 01da ecbc b39e 7bbd a077 69bd 9fe5 c7bd
00000090: 7763 29be 42c4 a8bd 284b 0ebe aed3 03be
000000a0: 19ad acbe 45d6 e3bd 9dd7 8fbe 124e f3bd
000000b0: 1130 b2bd 205c acbd 2754 bebd e97f 16be
000000c0: 5510 9bbd 6e8b 76be 4c1b 7ebd 74fb bfbe
000000d0: e043 73be 8925 b5be 8106 9abe 058c 10be
000000e0: 0fa9 5dbd d3f6 09be b3d2 bdbd bd32 80be
000000f0: bb3f 98bd 329f 6abe 14bc bbbd 8a57 a3bd
00000100: 6a65 6fbe 0050 ccbd 4b80 04be 5a8b 37be
00000110: 3c57 2abe 294e cebe 62b6 64be 92f2 9cbd
00000120: 308f 68bd 0547 b8be 1609 02be 4c28 acbe
00000130: a084 b6be d94c b8be d924 b5be f12c 86be
00000140: c071 31be d283 e1bd e77b 1abe 8bce 43bd
00000150: 3a5d febd d57a f3bd 2736 b1bd e7b8 50bd
00000160: b27e 94bd 715e a2bd af5e 0abe d3df 53be
00000170: beb9 d3bd 17af 93bd 59cb a2be f83a e0bd
00000180: 4814 f6bd a3e0 01be 3501 8cbd 66e6 10be
00000190: 1d2f a4be 59d6 79bd 22f0 bdbd a7e9 6dbd
000001a0: 811a 03be 931b 0cbe 1ad7 9cbd 3cc5 f1bd
000001b0: a3c5 99bd 4670 99bd 559a fbbd 6523 b1bd
000001c0: 6c01 dfbd 74f3 02be df8f 81be 964c c8bd
000001d0: 356f 6dbe 1e75 68be 9cbc 9dbd 9eb0 cfbc
000001e0: 8dfa 8abd 4771 b8bd 66a4 b5bd 045e 0abe
000001f0: 7402 c4bd 0023 67be d2aa a4bd e3dc 04be
00000200: f3d8 c7bd 5588 93bd 7c84 06be f37c f6bd
00000210: b35a dbbd 9756 debd 7f78 ffbd 7bcd c9bd
00000220: 5d07 dabd 9aff 33be c4a2 04be 8d67 45be
00000230: 9b1b 06be 62cd 8ebe 6317 bcbd 6997 96bd
00000240: 85fc 01be 8cd3 a2be abf7 89be b678 d4bc
00000250: f9ee 0bbd 7965 c2bd 158f 26bd 0add 9cbd
00000260: b8cd b1bd fe5b b8bd f86f d1bd abb6 45bd
00000270: 65c9 a9bd 7fa8 81bd c2f9 57be 2e8d 75be
00000280: 332b 23be 78d4 b5bd 8392 bbbd 0632 57bd
00000290: a99b 5fbd 9388 43bd 7309 78bd 7dc8 50bd
000002a0: 1a4f fdbd 1d6f 0dbe 4827 80be 61d0 f3bd
000002b0: 7fd6 b8be 9971 f5bd 1693 02bd 72c0 a4be
000002c0: 2660 e7bd d8ee a4be b435 5abd 4786 5bbe
000002d0: 7d37 43be 9e9e 89bd e4de 0cbe 984a aebe
000002e0: 69f4 e4bd 7922 f6bd 64fb 8bbe 2684 96bd
000002f0: 227c 7bbe 9898 82bd b67a 11be 990c 91be
00000300: 98cc 04be f86f 75be 8156 73bd 0e09 79bd
00000310: d85f 6abd 37ea e0bd 3214 c4bd 5ccf cabd
00000320: 3ecb 78bd 1385 9dbd 192a 00be c8d2 f6bd
00000330: 062a 6abd e7a7 adbe 7b4e 5fbd 31c1 47be
00000340: 4871 67be 8b9d e4bd f621 c6bd a1f5 94bd
00000350: 7824 54bd 4b9e 23bd 47fc 88be a3de aabd
00000360: eb4d bfbd 83c9 93bd 4aee c4bd fd0e d3be
00000370: dfb4 8bbd dca4 5bbe 9e29 c3bd 65a0 1cbe
00000380: 4645 c4be 33b8 23be 61ee 15be 0e6e c8bd
00000390: 0386 abbe 30e7 f5bd 4c87 d0bd 3512 0fbe
000003a0: e6fb 19be 296a babd 8f03 c1bd 0b49 f1bd
000003b0: 0ce4 8cbe 1f91 31bd a296 a3bd b6a8 ebbd
000003c0: 5e36 afbd a33b 13be fcdb d7be 4d58 c1bd
000003d0: 599f d5bd 3e76 a3bd 8566 4fbd 5754 f7bd
000003e0: 6e75 84bd 01b7 d0bd 0964 e2bd 5208 11bc
000003f0: d991 42bd 4f7a 32bd 5eb4 57be 4d7f 81be
-0.14978418 -0.21970722 -0.09763419 -0.03367078 -0.09251133 -0.06455483 -0.2534774 -0.17041318
-0.14036801 -0.09476112 -0.102750555 -0.37670165 -0.076435015 -0.0786458 -0.14336337 -0.061417963
-0.095611304 -0.18997481 -0.12966992 -0.27649695 -0.12181251 -0.28308097 -0.074786365 -0.35379824
-0.052346144 -0.13112739 -0.11680551 -0.043787252 -0.09381167 -0.057440955 -0.045198627 -0.09270138
-0.028912546 -0.061430644 -0.05699885 -0.097605936 -0.16541849 -0.08240558 -0.13895857 -0.12873718
-0.33725813 -0.11124853 -0.28094187 -0.11880125 -0.08700574 -0.08416009 -0.092933945 -0.14697231
-0.075714745 -0.24076626 -0.06203775 -0.3749653 -0.23756361 -0.353802 -0.30083087 -0.14115913
-0.054116305 -0.13473062 -0.09268703 -0.2503871 -0.074340306 -0.2291229 -0.091667324 -0.07975681
-0.2337853 -0.09976196 -0.12939565 -0.17924252 -0.1663484 -0.40294006 -0.22335199 -0.07663454
-0.05677718 -0.35991684 -0.12698779 -0.33624494 -0.3564806 -0.3599613 -0.35379675 -0.26206163
-0.17328548 -0.11011471 -0.15086327 -0.047804397 -0.12420125 -0.11888663 -0.08652907 -0.050957587
-0.07250728 -0.079281695 -0.13512681 -0.20690851 -0.10338162 -0.0721113 -0.31795767 -0.109487474
-0.12015587 -0.12683348 -0.06836168 -0.1415039 -0.32067195 -0.060995433 -0.09274317 -0.058084156
-0.12803079 -0.13682394 -0.07658215 -0.118051976 -0.07508399 -0.074921176 -0.12285296 -0.08649329
-0.10888943 -0.12788182 -0.25305077 -0.097802326 -0.23186953 -0.22700927 -0.0770199 -0.025352772
-0.0678607 -0.09005981 -0.08869247 -0.13512427 -0.095707804 -0.22571945 -0.08040394 -0.12974887
-0.09758177 -0.07203738 -0.13136476 -0.12035551 -0.10710659 -0.108563595 -0.12474155 -0.098536454
-0.10645936 -0.17577973 -0.12952715 -0.19277783 -0.13096468 -0.2789107 -0.09184148 -0.07353098
-0.12693985 -0.31802022 -0.26946768 -0.025936466 -0.03416345 -0.094920106 -0.040663797 -0.07659347
-0.08681816 -0.09001921 -0.102264345 -0.04826991 -0.08290366 -0.06330966 -0.21091369 -0.23979637
-0.15934448 -0.08878416 -0.09158804 -0.05253794 -0.05459181 -0.04773767 -0.060555886 -0.05097245
-0.12368603 -0.13811918 -0.2502997 -0.119049795 -0.36101148 -0.11984558 -0.031878553 -0.32178074
-0.11297636 -0.32213473 -0.05327387 -0.21437941 -0.19064136 -0.06719707 -0.13756901 -0.34041286
-0.1117943 -0.12018294 -0.27340233 -0.07349424 -0.24559072 -0.06376761 -0.14206967 -0.28329924
-0.12968671 -0.23968494 -0.05940867 -0.06079965 -0.05722031 -0.10982173 -0.095741645 -0.09902832
-0.0607407 -0.076913975 -0.12516059 -0.12051922 -0.057168983 -0.33917162 -0.054518204 -0.1950729
-0.22601807 -0.111628614 -0.09674446 -0.072734125 -0.05179259 -0.03994588 -0.26754972 -0.08343246
-0.093410335 -0.0721617 -0.096157625 -0.41222373 -0.06821608 -0.21449608 -0.09529422 -0.1529556
-0.383341 -0.15988235 -0.14641716 -0.09786616 -0.3350068 -0.12006986 -0.10182056 -0.13971789
-0.15037498 -0.0910228 -0.09424507 -0.1178151 -0.27517736 -0.04335129 -0.07987715 -0.115067884
-0.085552916 -0.14378218 -0.42160022 -0.0944067 -0.10430784 -0.07981537 -0.05063488 -0.120766334
-0.064677104 -0.10191155 -0.110542364 -0.008852081 -0.047502372 -0.043573674 -0.21064898 -0.25292435

8.weight f4 [8, 512]
00000000: 59d1 3dbd 7ef5 2dbe 5554 073d e1d2 6b3d
00000010: b696 7fbb 8386 b63c 3745 0ebd 6e4d d8bc
00000020: edd8 67be 7cd4 b0bd 3ff9 fbbd f27a 813e
00000030: 3117 e33c c3c4 f8bc 949e 1bbd af4c 81bd
00000040: 0df9 243d 0329 aabd 3bf9 303d 47c6 d83c
00000050: 0bd1 413c 740e 2dbe 7bb6 53bc 6352 6ebe
00000060: 2c8c 8fbc 54ba c53b 49e2 b93c bcef efbd
00000070: 0a44 cebb 7512 5bbd b974 293d 9133 a3bd
00000080: a0f7 c0bc c7bf de3b 9cb7 41bb 284b 94bd
00000090: ae22 a93c bae6 bcba 4bfb 453c acd7 4dbc
000000a0: 8e24 6a3d 5449 dbbc b7f1 6ebd 920b c5bc
000000b0: 900b 123d fd2e a8bd 2755 e03d 9dd8 e83b
000000c0: a079 84bc f544 42bd 3092 83bd 6512 07be
000000d0: b504 5fbb 08a9 4dbe e636 41bd 1f72 1f3d
000000e0: dfd7 02bd 3ab2 26bc 8f12 c3bd ea4c 1bbc
000000f0: e8b4 39bc 44b2 aabd cfd9 603c dcd1 253c
00000100: e7af 12bd 20ad e6bc 4525 2abc ac2a f3bd
00000110: 65bd eb3b f831 a0bd be31 76bd 3b3b 2e3d
00000120: a921 27bd 496f 57be cac0 d83a d1a0 9bbe
00000130: 75a7 31bd ca32 253d af4e 4f3e 5903 bc3e
00000140: 56b0 18bd 09f5 a6bd d396 eebd 8e80 0e3d
00000150: b91b 19bb 9981 48bc 1cea 1b3d 9085 013c
00000160: a751 b1bd e95c 44bc 1754 a63c c593 6c3d
00000170: 9f86 02be d12d 9c3d d524 99bd a577 113c
00000180: 2989 d539 b441 c4bc 1b94 733d f670 0fbd
00000190: 9885 953e fdc6 1e3c f062 873c ddc9 9fbc
000001a0: 992e 943b b735 c23c 866c 383c baa8 a3bc
000001b0: 386d aebc b828 80bb a988 5ebd 9c39 54bd
000001c0: b81b ecbe bb4e 97bd 06cf 04be 79ce d7bb
000001d0: 8c1b 8bbd 59a1 39be e356 81bc 1233 b83c
000001e0: 5a19 cdbc 2b03 ab3c 7a65 f1bc b856 33bc
000001f0: 1c9b 9a3b 6737 ef3d 0354 c8bc 91a6 21bd
00000200: 27b1 3fbc 60da 373c d4d5 be3b 01aa 55bc
00000210: cc42 cf3c 3680 74bd 784c bb3b 1ac3 cd3c
00000220: b1f1 883c f384 afba 51a4 18bd a5ec 10be
00000230: 636a 293d 29ca c5bd 4d87 debd ba7f 10bd
00000240: 2077 9cba 927b 1bbe 2a12 76bc 7dd5 d5bc
00000250: 5c73 c5bc 0c86 f53c eb5d 2cbb 0122 7fbd
00000260: 8bcc 28bd 6f95 243d f7aa b8bc 706a ba3c
00000270: fb3d 71bd 01f7 033d cc12 c8bd 046a 75bd
00000280: c23c a0bc 0ce6 7ebd 84b3 bebd bed4 8a3c
00000290: b7b8 313d d830 e83c bec9 983b cbcd 99bc
000002a0: 3bc6 9f3d af4c 0fbd 98d6 f7bd 9b7c e339
000002b0: f59c 00be a2ef 8cbd ee72 cbbd a3ef 8fbe
000002c0: 0f19 fc3c cc34 0dbe 8f37 0fbd 431c 2e3e
000002d0: 06a3 543e 29be bbbd 6c37 043d 9402 debb
000002e0: 4f94 023d 4bda 23bd 060e a13d 5157 ebbc
000002f0: eae7 933b b14b cdbd 1439 eb3b 8b05 1abe
00000300: 6450 893d 3812 b5bd 5707 1bbc 4a00 cebb
00000310: 5968 863c d6f4 8fbc 8843 6abd a0be 4bbd
00000320: c937 ebbc ae2c b7bc 3900 003c 2b34 00bd
00000330: 6045 65bc d6f0 4abe 400d 82bd 6e67 9dbd
00000340: 3f85 5c3d 5c5e edbc 80fc 123d 7407 b3bd
00000350: bde8 8bbc 31ca 003d e27a 4fbe a362 cbbc
00000360: 181b 9bbb 5e7d f0bc 0d75 07bd e98a ac3d
00000370: c2bb 2b3e 3e67 a4bd cdca 2d3d 70d8 8f3d
00000380: e900 0abe e60f 13bc c09f 8dbd 6d6f 763c
00000390: 22b1 ecbd 8085 b73c 2ed1 26be 7843 863c
000003a0: d7ba 79bd f6ab a5bd 2ffb 4dbc 8348 3b3c
000003b0: b54f ab3d 8a3c 95bc 23e0 14bd e90b 51bd
000003c0: 02fc 3fbd 95c2 9f3d eab0 bc3d e437 9ab9
000003d0: 9fdb 223d c9db bbba b261 08bd c0da f2bc
000003e0: bb8b 0cbd 018b cc3d ddc9 12bb f07d e4bc
000003f0: e2ba 2c3d f433 f3bc 5b36 b5bd a100 243e
-0.046342228 -0.16988179 0.03303941 0.057574157 -0.0038999743 0.022280937 -0.034733977 -0.026404109
-0.22641344 -0.08634278 -0.12303399 0.25289112 0.02772102 -0.03036726 -0.03799303 -0.06313454
0.040276576 -0.083086036 0.043206435 0.026461734 0.011829625 -0.16900045 -0.012921925 -0.23273616
-0.017522894 0.006034175 0.022690909 -0.117156476 -0.006294732 -0.0534844 0.04137108 -0.0796882
-0.023555577 0.006797764 -0.0029558903 -0.072408974 0.02064642 -0.0014412024 0.012083839 -0.012563627
0.057163768 -0.026768364 -0.058335986 -0.024053369 0.035655558 -0.08212087 0.109537415 0.0071059004
-0.016171277 -0.047429044 -0.064243674 -0.1319061 -0.0034029905 -0.20084012 -0.047171496 0.038927194
-0.031944152 -0.010174328 -0.09525024 -0.009478787 -0.011334635 -0.08334783 0.013723805 0.010120835
-0.035812285 -0.028158724 -0.010384862 -0.118733734 0.0071942084 -0.07822031 -0.06010603 0.042536955
-0.040803585 -0.21038546 0.0016536948 -0.3039613 -0.04337259 0.04033164 0.20244859 0.36721304
-0.037277542 -0.081522055 -0.11649861 0.034790568 -0.0023362471 -0.01223793 0.03806506 0.007905379
-0.08658152 -0.011985042 0.020303769 0.05775811 -0.12746666 0.07625926 -0.07477728 0.008878623
0.00040728718 -0.023957111 0.059467416 -0.035019837 0.29203486 0.009690997 0.01652667 -0.019505436
0.0045221564 0.023707254 0.011256343 -0.019977916 -0.021292314 -0.003911104 -0.054329548 -0.051812753
-0.46114898 -0.073880635 -0.12969598 -0.0065858928 -0.067923635 -0.18127955 -0.015788501 0.02248529
-0.025036503 0.020875534 -0.029467333 -0.010945968 0.0047181975 0.11680489 -0.024454122 -0.03946549
-0.011699951 0.011221498 0.00582383 -0.01304102 0.025300406 -0.059692584 0.005715903 0.025117446
0.01671681 -0.0013391062 -0.03726608 -0.14152773 0.041361224 -0.096576996 -0.1086565 -0.03527806
-0.0011937357 -0.15183857 -0.015018979 -0.026102776 -0.02410286 0.029971145 -0.0026301097 -0.062288288
-0.041210692 0.040181573 -0.02254246 0.022755831 -0.058897 0.032217983 -0.0976921 -0.059915558
-0.019560222 -0.06223111 -0.09311584 0.016947147 0.04338905 0.028343603 0.0046627214 -0.018774888
0.07801481 -0.03498524 -0.121014774 0.00043389652 -0.12559874 -0.06881644 -0.099340305 -0.28112516
0.030773668 -0.13789672 -0.034965094 0.17002968 0.20765314 -0.091671295 0.032279417 -0.0067752097
0.03187972 -0.040003102 0.07864003 -0.02872816 0.0045137303 -0.100242026 0.007178435 -0.15041177
0.067047864 -0.088413656 -0.009462199 -0.0062866556 0.016407179 -0.017572802 -0.05719331 -0.04974234
-0.028713124 -0.022360172 0.007812553 -0.03129975 -0.013993591 -0.19818434 -0.063501835 -0.07685743
0.05383801 -0.028975658 0.035885334 -0.08741656 -0.017078752 0.031442825 -0.2026172 -0.024827307
-0.0047334544 -0.029356655 -0.033070613 0.084249325 0.16770843 -0.080275044 0.042429734 0.07023704
-0.1347691 -0.008975958 -0.069152355 0.015041214 -0.11557223 0.022402525 -0.16290733 0.016389593
-0.0609692 -0.080894396 -0.012572094 0.011430862 0.08364812 -0.018217344 -0.036346566 -0.05103675
-0.046871193 0.078007855 0.09213431 -0.0002941481 0.03976023 -0.0014332469 -0.033296295 -0.029645324
-0.034312945 0.099874504 -0.0022398152 -0.027892083 0.042170413 -0.02968786 -0.08848258 0.16015865

8.bias f4 [8]
00000000: e450 45bd a659 ccbd eadd 8fbe e0c8 aa3d
00000010: a210 03bf 874b d23e dcb9 06bf 0da8 b13e
-0.048172846 -0.099780366 -0.28098994 0.08339095 -0.51197255 0.41073248 -0.5262735 0.34698525
