conv_edge_on_goal/pretrain.pt (torch, 119791 bytes, 7 tensors)

0.weight f4 [1, 1, 4, 4]
00000000: 4ea1 0c3e d88e aabd c1bf 973d 5e3f 55be
00000010: 5b23 ee3c 8caa c1bd 1285 f6bb cbbf 923e
00000020: baab 3cbd 3e7d 47be 6f85 94be 1de8 453e
00000030: 8806 48be f8ed 093d a6ca 87be 588f d13d
0.13733408 -0.083280265 0.07409621 -0.20824954 0.029069593 -0.09456357 -0.0075231874 0.2866195
-0.04606221 -0.1948137 -0.29008052 0.19326825 -0.19533741 0.03367421 -0.26521796 0.10232419

2.weight f4 [1, 1, 2, 2]
00000000: f8e9 9c3d 358a f9be 6342 7cbd 6dcf 263e
0.076618135 -0.48738256 -0.06158675 0.16290064

4.weight f4 [1, 1, 2, 2]
00000000: fa19 74be 25cc 4f3d 71d7 e3bd 622c f93e
-0.23838034 0.050731797 -0.111250766 0.48666674

6.weight f4 [512, 48]
00000000: da71 633d eaf6 b0ba 0c60 ee3c a019 09bd
00000010: 0fb0 32be fa4c bebc 7074 21be e3b1 2fbe
00000020: fe28 a53c 8c3a ed3c cadb d13c 28bd f4bd
00000030: d35f d13d dce2 c33c ee05 a93c 4fa2 3abe
00000040: 4e22 ac3c 168f 79bd b83a 12bd 7789 3bbe
00000050: 644f bcbd 33c6 86bc 7373 743c 78c4 88bd
00000060: aeb5 0cbe 96a0 783d e938 8dba 9b87 d6bd
00000070: d0c2 afbd 024a a2bd b3e2 d1bd dff6 a83b
00000080: 5b53 903d 9ea2 2dbc 06ef 60bd 66f8 79bd
00000090: 436b 2bbe 8cab b43c 58fa b3bd 5ebc 52bd
000000a0: 03ec ddbd da2c 503d e2af 16bd 9ef5 0dbc
000000b0: aecd 63bd 2c73 c73c f004 aebd ce9e 46bd
000000c0: 9527 193d 1c72 30be b963 0cbd 2840 01be
000000d0: e11b 26bd df13 40bc f032 a4bd a54a 63bd
000000e0: d913 26bd 5791 be3d 1143 61bd 05e1 183d
000000f0: a70b 7ebd d445 9ebd cea9 543c cd92 f73d
00000100: a57c 4abc 610d af3b 649f 363e bf28 74bd
00000110: 7a6e b9bd f27d 0d3e efc8 3b3d a38c 983c
00000120: e099 babc 2c66 1c3e e2cb 0d3e eb44 b1bd
00000130: 25a9 af3d 8b8b c23d ff59 2b3d f604 1e3e
00000140: fdb2 cd3d 1a1f 383e dc50 0a3e ad55 9f3d
00000150: 68f2 aebd a105 043d 750d ac3d 65d0 183d
00000160: 2278 9c3d 8e7f 173e 8ff1 7b3d 9528 8dbd
00000170: 9c2a 38be 7d53 3e3d 103a b7bd 216e bebd
00000180: 2788 5a3c 3c66 f13a 7cc4 02be f5c2 11bd
00000190: e99b a1bc 77e1 dd3c d018 71bd 8e1f 90bd
000001a0: c785 0bbe aa75 96bc e65b dbbd 2ac0 ddbd
000001b0: 264b 90bd e7c3 0c3d 9e6e a1bd 879a ae3c
000001c0: a855 0c3e a673 203d e028 883d ba43 9e3d
000001d0: 57c2 2a3d eee6 dcbb d5a8 073e 73a0 e0bc
000001e0: 7339 39bd 936a 14bd 62df cfbd 01a2 053e
000001f0: 13f6 e5bc 9049 893d b504 fd3c dfb2 ca3d
00000200: f8f6 893d e6e4 1a3d 642d ec3d 8f68 81bd
00000210: db4d 04be 2aee 6a3b ce72 8dbd 1e2c 183b
00000220: 275e 0c3c 025e f63d fc51 ffbd 4e54 b0bd
00000230: f4e0 e73d ffea b4bd 8e14 0fbe 2705 443c
00000240: 8ae1 14bd c024 ea3d 026e 0bbe c0f1 9dbd
00000250: 5464 61bd 0045 e83c 3078 e23c 1ad3 5abd
00000260: e44c 593d a4ce 363d 9107 edbd 49af 06be
00000270: dc06 e33d 2a18 aabd acc0 f43d 00ea fd3d
00000280: e45f 123d ecbf c5bd f4c0 103d dc4f 993d
00000290: b03b 803c 7e37 b93d 8a37 e9bd f03e 01bc
000002a0: 7cde 693d 600a cc3d 28c9 b03c 7c92 a03d
000002b0: 8024 a33a 1c81 023e 10ab 2a3c 731f 09be
000002c0: da72 ad3d 5a06 febd 7ce8 aa3d 6447 0b3e
000002d0: ad0b 9dbd 1c94 083d 4710 dbbd d1b6 13be
000002e0: 32e7 07be 24d0 8b3d 80cb 01be 0cb0 f03d
000002f0: 4823 983d aa96 0fbd 40f3 f13d b67f 953d
00000300: e8e3 b53d dc58 033e 4c3d 123e b8c9 073d
00000310: a0e0 a43b fb3a 08be 808f ddba 4ad0 093e
00000320: 886e b1bc 28a0 f53d 6871 8b3d bcc9 073e
00000330: 2c0a 973d fd52 11be 8624 67bd 06a3 27bd
00000340: 846d 093e 3c9e 1dbd f826 123e 5a07 97bd
00000350: c8c2 a23d a842 38bd a081 b0bc 6564 b0bd
00000360: 8243 0dbe 9c2c ae3d 58c4 d13c e8c5 8d3d
00000370: f417 ea3d 40ce cabd ecee 663d 888b 9bbd
00000380: f847 7bbd 6cc1 843d b040 ddbd 4efb 9b3d
00000390: 609c c7bc 963a f4bd 140d eb3d 10b6 87bc
000003a0: c850 f43d c2f5 cebd c636 15bd 649b 6f3d
000003b0: e87e 103e 803b 14bc 0052 433c 8e04 f0bd
000003c0: e404 383d 805c 853d fd88 a23b d79f 76bc
000003d0: 7d47 d13d 9929 c7bd f591 1a3e d9f1 e3bd
000003e0: 15e0 f2bd 7059 463d 4576 c0bd 76d6 92bd
000003f0: 0aee 5f3d 3510 5a3c 84ce 2f3d 5c0c f63c
0.0555285 -0.001350132 0.029098533 -0.033471704 -0.17449974 -0.023230065 -0.15767074 -0.17157702
0.020161148 0.028958581 0.025617499 -0.11950141 0.10223355 0.023911886 0.02063271 -0.18225978
0.021012451 -0.060927473 -0.03570053 -0.18314157 -0.0919483 -0.01645193 0.014920103 -0.066780984
-0.1374118 0.06070002 -0.0010774407 -0.104750834 -0.085820794 -0.07924272 -0.102483176 0.0051563825
0.07047149 -0.010597853 -0.05491545 -0.061027907 -0.16740136 0.022054456 -0.08787984 -0.051449172
-0.10836031 0.050824024 -0.03678883 -0.008664517 -0.055616073 0.02434691 -0.084970355 -0.04849129
0.037391264 -0.1723103 -0.03427479 -0.1262213 -0.04055393 -0.011723488 -0.08017528 -0.05549111
-0.040546272 0.09305065 -0.0549956 0.03732397 -0.06202283 -0.077281624 0.012979938 0.12088547
-0.012358819 0.005342171 0.1783424 -0.05960917 -0.09054275 0.13817576 0.045845922 0.018621748
-0.022778451 0.1527335 0.13847306 -0.08655723 0.08577184 0.09499272 0.041833874 0.1543158
0.10043905 0.17980614 0.13507408 0.07780013 -0.08542329 0.03223193 0.08401004 0.037308116
0.07640101 0.14794752 0.061509665 -0.06892506 -0.17985004 0.04646634 -0.089466214 -0.09298349
0.013338125 0.0018417309 -0.12770265 -0.035586316 -0.019727664 0.02708505 -0.058861554 -0.070372686
-0.13625251 -0.018366653 -0.107108876 -0.10827668 -0.070455834 0.034366515 -0.07882427 0.021313919
0.1370455 0.03917279 0.06648421 0.077277616 0.041689243 -0.006741396 0.13247998 -0.027420258
-0.045220803 -0.03623445 -0.10150029 0.13050081 -0.028071439 0.06703484 0.030886034 0.09897398
0.06736559 0.03781595 0.11532095 -0.06318771 -0.12920325 0.0035847523 -0.06906663 0.0023219655
0.00856737 0.12029649 -0.12466809 -0.0860983 0.11322203 -0.088338844 -0.13972685 0.011964119
-0.036347903 0.11432791 -0.13616183 -0.07712126 -0.05502732 0.028353214 0.0276452 -0.05342398
0.053051844 0.04463066 -0.11573709 -0.13152803 0.11085293 -0.0830539 0.11950812 0.123981476
0.03573598 -0.09655747 0.035340264 0.07485935 0.015653461 0.090437874 -0.11387546 -0.007888541
0.057096943 0.099629164 0.021580294 0.0784044 0.0012446791 0.12744564 0.010416761 -0.13390903
0.08469172 -0.12403555 0.08345124 0.13601452 -0.076682426 0.033344373 -0.10696464 -0.14425208
-0.13271788 0.06826809 -0.12675285 0.11752328 0.07428604 -0.035055794 0.118139744 0.072997496
0.0888136 0.12826866 0.14281195 0.03315136 0.00503166 -0.1330375 -0.0016903728 0.13458362
-0.02165915 0.11993438 0.0680874 0.1326055 0.07374987 -0.14191814 -0.056431316 -0.040926956
0.13420683 -0.038480982 0.14272678 -0.07374449 0.07947308 -0.044985443 -0.021546185 -0.08612899
-0.13795283 0.08504602 0.02560632 0.06922513 0.1143035 -0.0990262 0.056380197 -0.07594973
-0.06134793 0.06482205 -0.10803354 0.07616292 -0.024366558 -0.11925237 0.11477104 -0.016566306
0.1192947 -0.10105468 -0.03642919 0.0584978 0.14110911 -0.009047389 0.011921406 -0.11719619
0.04492654 0.065117836 0.004960178 -0.015052757 0.102187134 -0.09724731 0.1509474 -0.11130113
-0.118591465 0.048425138 -0.09397558 -0.071698114 0.05467037 0.013309528 0.042921558 0.03003519

6.bias f4 [512]
00000000: 122d 87be 6142 fb3f 44ea 9dbe fe4f 00be
00000010: 3095 c9bd 6135 1940 0f31 14bf 5b64 3cbf
00000020: 888a 24bf 9148 01be 8a60 2bbf 08ed 0ebe
00000030: 82d8 d9be 3aa4 d0bd 61f4 efbd 1042 01bf
00000040: 9d0f a1bf c80e e0bd e5cd 16bf 3db3 08be
00000050: c3ac f9bd 9f17 2cbf 0587 c93f b429 01bf
00000060: c3a2 16bf 376d 42be 7d57 0dbf 0a3e dcbd
00000070: d672 29bf ff10 2cbf a07d 48bd 319d 09bf
00000080: 2b4b 0abf 4feb 2bbf a063 c8bd 8a0a c0bd
00000090: bbb9 15bf 8feb acbe 676a 29bf de81 2f40
000000a0: 5aa9 8abf acfe 97bf 4679 c5bd 4016 8bbf
000000b0: 6896 2640 2682 25bf e8d7 46bd 4c5b c9bd
000000c0: 5791 0abe 3104 94bf 4a72 0940 f4bf 32bf
000000d0: d99a 62be a09b 1cbf 289d 0340 e743 9ebe
000000e0: 1ba2 8dbf 3811 1dbf 912d 38bf 0e85 74be
000000f0: 239a b1be 20f1 8d3f b340 98bf 935b 9fbf
00000100: 7664 62bf 3b8a 1140 a51e c6be 32a6 24bf
00000110: 848d 6f3f e8ff f1be c7f0 3c3f f25d 16bf
00000120: 74de 5dbe d39b 963e 14dd 72bd acf7 0dbf
00000130: fa92 f7bd 29fb 7fbf 7a4f 4640 e4a0 f6bc
00000140: fe10 5440 eed9 d1bd d125 3ebf 555f 3abe
00000150: d37a 65bf d03b 0bbf ab5a 2fbf 1d72 0abe
00000160: 417f 5340 960e 413f dc9d 1240 e7fa 15bf
00000170: 0455 80be 74df f63f a101 0abf fcc0 3dbe
00000180: 8a5b 31bf 9424 993f 046e 1abf 650e 4340
00000190: 15f1 53bf 9377 54be ec35 e4be 401e d43f
000001a0: 7e78 32bf e94a 6ebd ecbf 43bf ed70 67be
000001b0: 2e91 d3be e787 1bbf e875 34bf f167 3040
000001c0: cff3 16bf e19b c8be 9259 1a40 fd33 b1be
000001d0: ff2f 12be c695 23bf 9611 edbe 7c2c e5be
000001e0: 06e9 8ebe f889 54bf fdd8 87bf 9576 77be
000001f0: 9af0 1840 393f 1cbf ea1c 21bf 215a 0abf
00000200: 055b 28bf d0d5 3fbe 5ca8 2c40 e95c 15be
00000210: 911c 21bf 8398 06bf 9a8e 22bf d8ef febf
00000220: 8365 c9be b501 30be 2c09 69bf 5302 3bbf
00000230: c347 20bf 3613 623e fe4b 78bd c195 91bf
00000240: 0da2 2dbf 97bf 2a40 c327 a7bf ed81 acbd
00000250: 8926 0cbf 9337 0cbf af4a f53f 0604 96be
00000260: 71ba 4bbe 09ca 313f ace5 00bf 1260 40bf
00000270: b2d8 05bf d58a 1740 ccf1 1cbf 8c7f edbd
00000280: a9f5 68be 9d16 67bf 80c1 2140 c09c 0ebf
00000290: efac 88be 00ba 24bf 0a93 1740 5276 a2bd
000002a0: 4c74 1ebf d659 51bf d794 3240 311b cebd
000002b0: 19f9 0fbf eda3 18bf 36ca 2740 dd26 2dbf
000002c0: d36d 1cbf cbe2 2dbf de9b 63bf cc1f e2bd
000002d0: b19f a33f 11f7 be3f 10d7 a8bf 579c 5ebf
000002e0: 8e6f 24bf 5623 22bf 638b 28bf 15ef 82be
000002f0: 5196 5140 fda5 2dbf 3ad7 7bbd 94b2 6340
00000300: 0b96 3fbf eda9 5fbf 1c50 90bd 7cc3 4ebf
00000310: d8fb 663e 8762 1840 cf1c e9be 4c50 27bd
00000320: b6ea d93f 914a 0fbe 2445 b4be 18aa 4d40
00000330: 7c77 07be 4a4b a13f dd18 82bf d5e6 703f
00000340: 9938 7dbf f38f 25bf 14d5 8e3f f659 6240
00000350: 17f8 39bf d530 0240 e531 32bf cb6e 26bf
00000360: 4000 7abd 7cee 3140 a7bb 1cbf 41cb 3040
00000370: 4c31 903f cbe0 f8be 8998 75bf ec51 febe
00000380: 5af0 dc3e 5e99 2fbf d640 c0bd 3676 0940
00000390: b3af 09be b96d 88bf e14b b6bf 397c 20bf
000003a0: 3094 2140 7cba 26bf 428c 993f d3b8 3a40
000003b0: 9e76 3540 d3a9 21bf bb17 38bf 7d8f d9be
000003c0: 9504 9fbe 233d 3f40 6d1d 17bf 8f52 0f40
000003d0: 2a70 42bf 7e36 4fbf 9986 1fbf 01e5 fabe
000003e0: f092 213f 33b8 8c3f bbad 14bf 6609 fb3f
000003f0: bfb2 98bd ea21 0240 f348 40bf 3785 6e3e
-0.26401573 1.9629632 -0.30842793 -0.12530515 -0.098429084 2.393883 -0.5788736 -0.7359063
-0.6427388 -0.12625338 -0.6694418 -0.13957608 -0.42547995 -0.10187574 -0.117165335 -0.5049143
-1.258289 -0.10940319 -0.5890792 -0.13349624 -0.12191155 -0.6722354 1.574433 -0.5045426
-0.58842105 -0.18986975 -0.5521162 -0.107540205 -0.6619085 -0.67213434 -0.04894793 -0.5375548
-0.5402095 -0.6715593 -0.09784627 -0.0937701 -0.5848653 -0.33773467 -0.6617798 2.7423015
-1.0832932 -1.1874595 -0.09642272 -1.0866165 2.60293 -0.64651716 -0.048545748 -0.098318666
-0.13532005 -1.1563779 2.1476007 -0.6982415 -0.22129382 -0.61174965 2.056467 -0.3091118
-1.1065096 -0.613544 -0.7194453 -0.23878881 -0.3468791 1.108921 -1.1894745 -1.2449821
-0.8843454 2.274062 -0.38695255 -0.64316094 0.9357531 -0.47265553 0.738049 -0.587371
-0.2166689 0.2941576 -0.059292868 -0.5545604 -0.120885804 -0.99992615 3.0986009 -0.030106016
3.3135371 -0.10246645 -0.74276453 -0.18200429 -0.8964054 -0.5438814 -0.68497723 -0.13520093
3.304642 0.7541288 2.290885 -0.5858597 -0.25064862 1.9286942 -0.53908736 -0.18530649
-0.692803 1.1964288 -0.6032412 3.0477536 -0.82789737 -0.20748739 -0.4457239 1.6571732
-0.69715106 -0.05817691 -0.76464725 -0.22601672 -0.413217 -0.60754246 -0.7049241 2.756344
-0.5896577 -0.39181426 2.411717 -0.34609976 -0.14276122 -0.6390041 -0.4630248 -0.447605
-0.27912158 -0.83023024 -1.0613095 -0.24166329 2.3896852 -0.6103397 -0.62934744 -0.54043776
-0.65763885 -0.18733907 2.6977758 -0.14586224 -0.62934214 -0.52576464 -0.6349884 -1.9916945
-0.3933526 -0.17188151 -0.9102962 -0.7305042 -0.626095 0.22077641 -0.060619347 -1.1373826
-0.67825395 2.6679437 -1.3059009 -0.08423219 -0.547463 -0.547723 1.9163417 -0.29299945
-0.1989534 0.69448906 -0.5035045 -0.7514659 -0.52283776 2.3678486 -0.6130645 -0.11596593
-0.22749962 -0.9026888 2.5274353 -0.5570793 -0.26694438 -0.64346313 2.3683496 -0.07932724
-0.61896205 -0.81777704 2.7903345 -0.1006378 -0.5623947 -0.5962513 2.621717 -0.67637426
-0.6110508 -0.67924184 -0.8890971 -0.11041221 1.2783109 1.4919149 -1.3190632 -0.86957306
-0.6423272 -0.6333517 -0.6583769 -0.2557303 3.2747996 -0.67831403 -0.061484553 3.5577745
-0.7483832 -0.8736866 -0.0704653 -0.80767035 0.22557008 2.3810136 -0.45529792 -0.04084806
1.7024753 -0.13993289 -0.35209 3.2135067 -0.13229173 1.2601101 -1.0163838 0.9410222
-0.98914486 -0.64672774 1.1158776 3.5367408 -0.7264418 2.0342305 -0.69607383 -0.65012807
-0.061035395 2.780181 -0.61223835 2.7624056 1.1265044 -0.48609003 -0.95935875 -0.49671876
0.43152124 -0.68593395 -0.093873665 2.14784 -0.1344593 -1.0658485 -1.4241906 -0.6268955
2.5246696 -0.651283 1.1995928 2.9175308 2.8353648 -0.63149756 -0.7191121 -0.42492285
-0.31058183 2.9881065 -0.59029275 2.239414 -0.759524 -0.80942523 -0.62314755 -0.4900284
0.63114834 1.0993713 -0.5807759 1.9612243 -0.07455968 2.03332 -0.7511131 0.23293005

8.weight f4 [8, 512]
00000000: 3560 0e3e b819 00c0 5f7f 75bd 4818 9cbc
00000010: b25b c93c e616 0ac0 214a b2be 255d 953e
00000020: 8535 1bbf ed62 77be 2406 c13e ba51 b23c
00000030: bb5f 92be a6b0 973c aa7b d93d 44ff cd3e
00000040: 7f1d 58be 0bf6 1b3d 439c 19bf b839 f43b
00000050: c4dc 2bbf e06c b93d fbe9 ebbf 32cf af39
00000060: 8c14 183f 50d4 2cbf 92b0 2b3d d399 02bd
00000070: 7230 2a3f 04c4 f9bc 8140 91bc cb28 9f3c
00000080: dd96 c0be 0b88 f83e eb9f 0e3d 6cf9 613c
00000090: 57a6 1abd 307b 3b3f d55e ce3d b14e 11c0
000000a0: 662a 83be 496f 2bbf bf2d 6ebe 6fa4 113e
000000b0: a536 0ec0 4e18 adbd 5676 8abc efea f3bd
000000c0: 40a3 c03a 4d64 273d 883c 04c0 58e1 a03d
000000d0: 0446 93bf 35c6 39bf 4975 02c0 0683 143e
000000e0: 3a29 3dbe de84 2d3f c078 5b3d b276 b6bf
000000f0: e30c 80bf 5f26 cebf 55dc 653c 8205 043f
00000100: a0c4 9cbe 5642 07c0 8f9a 183e 6ff7 28bf
00000110: 3c31 c1bf 304f b8bd 4ced aebf 3213 8ebe
00000120: e935 77be 58f2 7ebf 4316 34bd db7b 49bf
00000130: 5086 8cbc c875 89bf 5d32 17c0 704d c1bb
00000140: c331 1cc0 712f 78bf 72ad 18bb 09f2 17bf
00000150: ec6c c13d 7844 5cbf 2467 1cbf ccb0 09bd
00000160: 0165 1ac0 9322 b0bf af52 07c0 79bd 60bf
00000170: a6ed a7be ac7e febf 3374 313d 5cca cfbe
00000180: 9a49 e93c 0d33 d4bf 44f9 9c3b 6d06 17c0
00000190: 9190 2abf 669a 10bf 56e8 d2bd 5916 f1bf
000001a0: 0e68 1cbf 471f a5be a0e9 783e a1d6 073f
000001b0: 689b c9bf 2ae8 b63c 463d cbbc 4bfd 10c0
000001c0: 80e0 1dbf 1143 6ebf c928 0ac0 b90b 6dbf
000001d0: 65f7 e2bc 96f5 2e3f ffa2 77bd d5bb 2e3e
000001e0: 0626 0abe d535 16be 6aab 843c ab2d f4be
000001f0: 40f7 09c0 a18f fcbc dcf2 adbd e2f4 e8bc
00000200: 2ac4 1b3e 314f c8be f281 10c0 302b d5bd
00000210: 5bbc 773c f914 b4be 1013 8ebd 64a1 d83f
00000220: c67d d03e 78b9 9dbc 4b74 403d 1c99 91bc
00000230: 9d0e 173d f590 6fbf b021 e73b 86ec dabe
00000240: 0c44 503e 4bd8 0fc0 cca9 87be b787 a2be
00000250: 4228 0b3f d9ad 07bf aeb0 fdbf 9a8f 5bbf
00000260: 66a9 433e 1b8f aabf 80c9 67bf 83b9 943e
00000270: 83ab 27bf f280 09c0 7809 eabd e8b0 b33b
00000280: 080b 47bf fe58 143f 9fb9 0cc0 5808 5bbf
00000290: 5d1d c1be a0b1 abbd e22e 09c0 70b5 743c
000002a0: 3bbf 563c 06e1 9fbe 92e2 11c0 a2df bbbc
000002b0: 8e40 2abe 25ae 1cbf 4df5 1fc0 0154 fdbd
000002c0: be74 9cbf b36c f13b e5e5 7c3e 3ca6 0c3c
000002d0: e8c3 d9bf b7a4 f1bf 8587 45be e0b6 3d3e
000002e0: 2cef 8bbd 31db 65be a234 8c3d 25b0 babe
000002f0: d1a4 1ac0 86da 62be d902 033d dc76 1fc0
00000300: 545a 6bbc 0d40 cf3e 707d 75bc 0848 443e
00000310: 4d25 71bf 3536 0ac0 3840 d5be 4c11 023c
00000320: c62b f2bf a326 273d 825d fa3d 536d 19c0
00000330: 9092 32bc f7e8 d8bf c171 d53d 2640 c1bf
00000340: 5c40 2fbf 6d6f f13e ae9a cebf ddc6 1ec0
00000350: a16c 2ebf 2c99 01c0 961c fabc 1adf 6fbf
00000360: 6073 e4ba d010 12c0 d707 bfbd c830 11c0
00000370: 1fc7 cfbf 1fb3 cfbe 9301 d2be cc03 9fbb
00000380: 0445 9abf 63a9 69be 29ce 0b3d 1dac 04c0
00000390: 93d2 253d d764 52bf a9e5 e63e 09f3 c6be
000003a0: eb99 0dc0 fbf0 15bf c5e9 dbbf ddf8 14c0
000003b0: 0920 13c0 ec0b b5bd 25da fa3d 1962 4cbf
000003c0: 0e4b b0bf 9048 15c0 90d2 3f3d 4561 06c0
000003d0: d5c7 82be eaf1 d63e aa5c 413f 6109 5abe
000003e0: fa08 a6bf 0ae7 cdbf c96f 21bf 6088 ffbf
000003f0: 5c39 6cbc e7d4 01c0 e11f 56be 6bd5 78bf
0.13903888 -2.0015697 -0.059935924 -0.019054547 0.024579857 -2.1576476 -0.3482218 0.29172626
-0.6062854 -0.24158831 0.37699997 0.021767486 -0.28588662 0.01851685 0.1061929 0.40233815
-0.21105002 0.03807644 -0.6000406 0.0074531697 -0.67133737 0.090539694 -1.843078 0.00033532974
0.5940635 -0.67511463 0.041916437 -0.03188498 0.6648017 -0.030488975 -0.017730953 0.019428631
-0.376151 0.48541293 0.03482048 0.013792377 -0.03775629 0.73234844 0.100766815 -2.270428
-0.25618285 -0.6696668 -0.23259638 0.14222883 -2.2220852 -0.084519014 -0.01690213 -0.119100444
0.001469709 0.04086714 -2.0661945 0.07855481 -1.1505742 -0.72568065 -2.0384085 0.14503106
-0.18472758 0.67780864 0.053581953 -1.4254973 -1.0003933 -1.610546 0.014029582 0.51570904
-0.30618763 -2.1134238 0.1490271 -0.66002554 -1.509315 -0.08999479 -1.3666167 -0.2774902
-0.24141659 -0.9958854 -0.043966543 -0.78704613 -0.017153889 -1.0739069 -2.362449 -0.005899124
-2.4405372 -0.9694739 -0.002329674 -0.5935369 0.09444603 -0.86041975 -0.6109488 -0.033615872
-2.4124148 -1.3760551 -2.1144216 -0.8778911 -0.327985 -1.9882407 0.043323707 -0.40584075
0.028477479 -1.657808 0.004790457 -2.3597672 -0.6662684 -0.56485593 -0.10298221 -1.8834945
-0.61096275 -0.32250425 0.24307871 0.5306187 -1.5750551 0.022327501 -0.02480949 -2.2654598
-0.61670685 -0.93071085 -2.1587393 -0.9259601 -0.027705858 0.68343484 -0.06045818 0.1706384
-0.13491067 -0.14668973 0.016195018 -0.47691092 -2.155716 -0.030830206 -0.084935874 -0.028437082
0.1521155 -0.39122918 -2.2579312 -0.10408628 0.015120591 -0.3517225 -0.0693723 1.6924253
0.40720958 -0.019253477 0.046985906 -0.017773204 0.03687917 -0.9358056 0.0070535764 -0.42758578
0.20338458 -2.2475765 -0.26496732 -0.31744167 0.54358304 -0.52999645 -1.9819543 -0.85765994
0.19107589 -1.3324922 -0.9054184 0.29047784 -0.6549608 -2.1484952 -0.11427587 0.0054837354
-0.7775121 0.5794829 -2.1988294 -0.85559607 -0.37717715 -0.08383489 -2.1434865 0.014935836
0.013107116 -0.31226367 -2.2794538 -0.022933785 -0.16626188 -0.61203223 -2.499347 -0.12369538
-1.2223127 0.0073676943 0.24697073 0.008584555 -1.7012911 -1.8878392 -0.19289978 0.18526793
-0.06832728 -0.22446896 0.068459764 -0.36462513 -2.4163096 -0.22153673 0.031985138 -2.4916296
-0.014364798 0.40478554 -0.01498352 0.19168103 -0.9419754 -2.1595585 -0.41650558 0.007938694
-1.8919609 0.04080833 0.122248664 -2.3972976 -0.010899201 -1.6946095 0.104220875 -1.5097702
-0.6845758 0.47155324 -1.6140954 -2.4808877 -0.68134505 -2.0249739 -0.030531209 -0.936998
-0.0017429404 -2.2822762 -0.09327667 -2.2686024 -1.6232642 -0.40566346 -0.41016826 -0.0048527475
-1.2052312 -0.22818522 0.034132157 -2.073005 0.040484022 -0.8218512 0.45097092 -0.38857296
-2.2125194 -0.5857083 -1.7180716 -2.3276894 -2.2988303 -0.088401645 0.12248639 -0.79837185
-1.3772905 -2.3325539 0.046831667 -2.0996869 -0.25543085 0.4198144 0.7553202 -0.2129264
-1.297149 -1.6086133 -0.63061196 -1.9963493 -0.014417972 -2.0286195 -0.20910598 -0.9720065

8.bias f4 [8]
00000000: 6696 94c0 57ca 93c0 fa35 afc0 f375 9dc0
00000010: 2818 90c0 990a 93c0 2cd0 95c0 16f4 96c0
-4.643359 -4.6184497 -5.475339 -4.920648 -4.5029488 -4.5950437 -4.6816616 -4.7172956
